…
>168</span><br><span class="line">169</span><br><span class="line">170</span><br><span class="line">171</span><br><span class="line">172</span><br><span class="line">173</span><br><span class="line">174</span><br></pre></td><td class="code"><pre><code class="hljs python"><span class="hljs-comment"># 根据Transformer结构图构建的最终模型结构</span><br>EncoderDecoder(<br>  (encoder): Encoder(<br>    (layers): ModuleList(<br>      (<span class="hljs-number">0</span>): EncoderLayer(<br>        (self_attn): MultiHeadedAttention(<br>          (linears): ModuleList(<br>            (<span class="hljs-number">0</span>): Linear(in_features=<span class="hljs-number">512</span>, out_features=<span class="hljs-number">512</span>)<br>            (<span class="hljs-number">1</span>): Linear(in_features=<span class="hljs-number">512</span>, out_features=<span class="hljs-number">512</span>)<br>            (<span class="hljs-number">2</span>): Linear(in_features=<span class="hljs-number">512</span>, out_features=<span class="hljs-number">512</span>)<br>            (<span class="hljs-number">3</span>): Linear(in_features=<span class="hljs-number">512</span>, out_features=<span class="hljs-number">512</span>)<br>          )<br>          (dropout): Dropout(p=<span class="hljs-number">0.1</span>)<br>        )<br>        (feed_forward): PositionwiseFeedForward(<br>          (w_1): Linear(in_features=<span class="hljs-number">512</span>, out_features=<span class="hljs-number">2048</span>)<br>          (w_2): Linear(in_features=<span class="hljs-number">2048</span>, out_features=<span class="hljs-number">512</span>)<br>          (dropout): Dropout(p=<span class="hljs-number">0.1</span>)<br>        )<br>        (sublayer): ModuleList(<br>          (<span class="hljs-number">0</span>): SublayerConnection(<br>            (norm): LayerNorm(<br>            )<br>            (dropout): Dropout(p=<span class="hljs-number">0.1</span>)<br>          )<br>          (<span class="hljs-number">1</span>): SublayerConnection(<br>            (norm): LayerNorm(<br>            )<br>            (dropout): Dropout(p=<span class="hljs-number">0.1</span>)<br>          )<br>        )<br>      )<br>      (<span class="hljs-number">1</span>): EncoderLayer(<br>        (self_attn): MultiHeadedAttention(<br>          (linears): ModuleList(<br>            (<span class="hljs-number">0</span>): Linear(in_features=<span class="hljs-number">512</span>, out_features=<span class="hljs-number">512</span>)<br>            (<span class="hljs-number">1</span>): Linear(in_features=<span class="hljs-number">512</span>, out_features=<span class="hljs-number">512</span>)<br>            (<span class="hljs-number">2</span>): Linear(in_features=<span class="hljs-number">512</span>, out_features=<span class="hljs-number">512</span>)<br>            (<span class="hljs-number">3</span>): Linear(in_features=<span class="hljs-number">512</span>, out_features=<span class="hljs-number">512</span>)<br>          )<br>          (dropout): Dropout(p=<span class="hljs-number">0.1</span>)<br>        )<br>        (feed_forward): PositionwiseFeedForward(<br>          (w_1): Linear(in_features=<span class="hljs-number">512</span>, out_features=<span class="hljs-number">2048</span>)<br>          (w_2): Linear(in_features=<span class="hljs-number">2048</span>, out_features=<span class="hljs-number">512</span>)<br>          (dropout): Dropout(p=<span class="hljs-number">0.1</span>)<br>        )<br>        (sublayer): ModuleList(<br>          (<span class="hljs-number">0</span>): SublayerConnection(<br>            (norm): LayerNorm(<br>            )<br>            (dropout): Dropout(p=<span class="hljs-number">0.1</span>)<br>          )<br>          (<span class="hljs-number">1</span>): SublayerConnection(<br>            (norm): LayerNorm(<br>            )<br>            (dropout): Dropout(p=<span class="hljs-number">0.1</span>)<br>          )<br>        )<br>      )<br>    )<br>    (norm): LayerNorm(<br>    )<br>  )<br>  (decoder): Decoder(<br>    (layers): ModuleList(<br>      (<span class="hljs-number">0</span>): DecoderLayer(<br>        (self_attn): MultiHeadedAttention(<br>          (linears): ModuleList(<br>            (<span class="hljs-number">0</span>): Linear(in_features=<span class="hljs-number">512</span>, out_features=<span class="hljs-number">512</span>)<br>            (<span class="hljs-number">1</span>): Linear(in_features=<span class="hljs-number">512</span>, out_features=<span class="hljs-number">512</span>)<br>            (<span class="hljs-number">2</span>): Linear(in_features=<span class="hljs-number">512</span>, out_features=<span class="hljs-number">512</span>)<br>            (<span class="hljs-number">3</span>): Linear(in_features=<span class="hljs-number">512</span>, out_features=<span class="hljs-number">512</span>)<br>          )<br>          (dropout): Dropout(p=<span class="hljs-number">0.1</span>)<br>        )<br>        (src_attn): MultiHeadedAttention(<br>          (linears): ModuleList(<br>            (<span class="hljs-number">0</span>): Linear(in_features=<span class="hljs-number">512</span>, out_features=<span class="hljs-number">512</span>)<br>            (<span class="hljs-number">1</span>): Linear(in_features=<span class="hljs-number">512</span>, out_features=<span class="hljs-number">512</span>)<br>            (<span class="hljs-number">2</span>): Linear(in_features=<span class="hljs-number">512</span>, out_features=<span class="hljs-number">512</span>)<br>            (<span class="hljs-number">3</span>): Linear(in_features=<span class="hljs-number">512</span>, out_features=<span class="hljs-number">512</span>)<br>          )<br>          (dropout): Dropout(p=<span class="hljs-number">0.1</span>)<br>        )<br>        (feed_forward): PositionwiseFeedForward(<br>          (w_1): Linear(in_features=<span class="hljs-number">512</span>, out_features=<span class="hljs-number">2048</span>)<br>          (w_2): Linear(in_features=<span class="hljs-number">2048</span>, out_features=<span class="hljs-number">512</span>)<br>          (dropout): Dropout(p=<span class="hljs-number">0.1</span>)<br>        )<br>        (sublayer): ModuleList(<br>          (<span class="hljs-number">0</span>): SublayerConnection(<br>            (norm): LayerNorm(<br>            )<br>            (dropout): Dropout(p=<span class="hljs-number">0.1</span>)<br>          )<br>          (<span class="hljs-number">1</span>): SublayerConnection(<br>            (norm): LayerNorm(<br>            )<br>            (dropout): Dropout(p=<span class="hljs-number">0.1</span>)<br>          )<br>          (<span class="hljs-number">2</span>): SublayerConnection(<br>            (norm): LayerNorm(<br>            )<br>            (dropout): Dropout(p=<span class="hljs-number">0.1</span>)<br>          )<br>        )<br>      )<br>      (<span class="hljs-number">1</span>): DecoderLayer(<br>        (self_attn): MultiHeadedAttention(<br>          (linears): ModuleList(<br>            (<span class="hljs-number">0</span>): Linear(in_features=<span class="hljs-number">512</span>, out_features=<span class="hljs-number">512</span>)<br>            (<span class="hljs-number">1</span>): Linear(in_features=<span class="hljs-number">512</span>, out_features=<span class="hljs-number">512</span>)<br>            (<span class="hljs-number">2</span>): Linear(in_features=<span class="hljs-number">512</span>, out_features=<span class="hljs-number">512</span>)<br>            (<span class="hljs-number">3</span>): Linear(in_features=<span class="hljs-number">512</span>, out_features=<span class="hljs-number">512</span>)<br>          )<br>          (dropout): Dropout(p=<span class="hljs-number">0.1</span>)<br>        )<br>        (src_attn): MultiHeadedAttention(<br>          (linears): ModuleList(<br>            (<span class="hljs-number">0</span>): Linear(in_features=<span class="hljs-number">512</span>, out_features=<span class="hljs-number">512</span>)<br>            (<span class="hljs-number">1</span>): Linear(in_features=<span class="hljs-number">512</span>, out_features=<span class="hljs-number">512</span>)<br>            (<span class="hljs-number">2</span>): Linear(in_features=<span class="hljs-number">512</span>, out_features=<span class="hljs-number">512</span>)<br>            (<span class="hljs-number">3</span>): Linear(in_features=<span class="hljs-number">512</span>, out_features=<span class="hljs-number">512</span>)<br>          )<br>          (dropout): Dropout(p=<span class="hljs-number">0.1</span>)<br>        )<br>        (feed_forward): PositionwiseFeedForward(<br>          (w_1): Linear(in_features=<span class="hljs-number">512</span>, out_features=<span class="hljs-number">2048</span>)<br>          (w_2): Linear(in_features=<span class="hljs-number">2048</span>, out_features=<span class="hljs-number">512</span>)<br>          (dropout): Dropout(p=<span class="hljs-number">0.1</span>)<br>        )<br>        (sublayer): ModuleList(<br>          (<span class="hljs-number">0</span>): SublayerConnection(<br>            (norm): LayerNorm(<br>            )<br>            (dropout): Dropout(p=<span class="hljs-number">0.1</span>)<br>          )<br>          (<span class="hljs-number">1</span>): SublayerConnection(<br>            (norm): LayerNorm(<br>            )<br>            (dropout): Dropout(p=<span class="hljs-number">0.1</span>)<br>          )<br>          (<span class="hljs-number">2</span>): SublayerConnection(<br>            (norm): LayerNorm(<br>            )<br>            (dropout): Dropout(p=<span class="hljs-number">0.1</span>)<br>          )<br>        )<br>      )<br>    )<br>    (norm): LayerNorm(<br>    )<br>  )<br>  (src_embed): Sequential(<br>    (<span class="hljs-number">0</span>): Embeddings(<br>      (lut): Embedding(<span class="hljs-number">11</span>, <span class="hljs-number">512</span>)<br>    )<br>    (<span class="hljs-number">1</span>): PositionalEncoding(<br>      (dropout): Dropout(p=<span class="hljs-number">0.1</span>)<br>    )<br>  )<br>  (tgt_embed): Sequential(<br>    (<span class="hljs-number">0</span>): Embeddings(<br>      (lut): Embedding(<span class="hljs-number">11</span>, <span class="hljs-number">512</span>)<br>    )<br>    (<span class="hljs-number">1</span>): PositionalEncoding(<br>      (dropout): Dropout(p=<span class="hljs-number">0.1</span>)<br>    )<br>  )<br>  (generator): Generator(<br>    (proj): Linear(in_features=<span class="hljs-number">512</span>, out_features=<span class="hljs-number">11</span>)<br>  )<br>)<br></code></pre></td></tr></table></figure><p><strong>小节总结</strong></p><ul><li>学习并实现了编码器-解码器结构的类: EncoderDecoder<ul><li>类的初始化函数传入5个参数, 分别是编码器对象, 解码器对象, 源数据嵌入函数, 目标数据嵌入函数, 以及输出部分的类别生成器对象.</li><li>类中共实现三个函数, forward, encode, decode</li><li>forward是主要逻辑函数, 有四个参数, source代表源数据, target代表目标数据, 
…
